MobilenetsV1_flower_classification/not_use/last_bias.npy (npy, 20608 bytes, 1 tensors)

array f4 [5, 1024]
00000000: 8e55 823c 0557 d33c 19b2 cebc a4f3 d43c
00000010: db87 893c a888 803c c9cc efbc b101 debb
00000020: 8fe3 ce3c fa4a 9f3c a10d fc3c 3eed 2cbb
00000030: 7def 48bc 05b1 47bc fa8b 7a3c d0a7 22bc
00000040: cabb 06bc 0d35 5cbc 43cf c8bc 3462 c13c
00000050: f4dd 553c 73c7 513c f3c3 a33c d2f8 ba3c
00000060: 9d08 d63a c452 bd3c a111 7cbb d3ec c33c
00000070: 1bee f4bc b089 bcbc adf5 91bc 5da5 cc3c
00000080: 8f10 583c 1ed4 8e3c d967 dc3c 6579 b73c
00000090: 980b 7d3c 347b b23c d6c0 e13c 3f77 93bc
000000a0: 50ab 143c 67b5 d939 ba9c 38bb e470 e9bc
000000b0: b489 c43c 925c 39bc 7d19 983c 65d3 b93c
000000c0: 1d4d bfbb cb6c 9a3c c0ea ff3a ec5f 45bc
000000d0: 49dc 20bc bf58 27bd 3886 06bb 0517 c13c
000000e0: 036b d1bc e253 583c e292 6c3c 0825 21bc
000000f0: fec5 903c 48ec e93b 11ed 1bbc e244 8dba
00000100: 3ad9 ce3c eb71 c33c 8427 69bc d6b6 913c
00000110: 244f 70bc c816 7d3c f8a8 0a3b edc3 77bb
00000120: b31b 973c 4b3d e0bc 7ee2 093c f62f 523c
00000130: af5c 73bc de39 443c 10b0 57bb e772 a1bc
00000140: bb4d 363c 11d8 a0bc b952 c13c c7db f23b
00000150: 26f3 3f3b 5a13 d83b 9f60 f83c 914e ac3c
00000160: 1dc1 b4bc 4458 4fbc 0618 acbc 6b3b 8c3c
00000170: c835 19bc b45b cc3c 44ca 503c eb15 ad3c
00000180: 28f1 183c ca08 c7bc c1e7 b83c 7265 24bc
00000190: e873 bf3b 732b 16bc 6cc6 fcbb ec19 1ebd
000001a0: f500 6ebc 2b02 a33c 841f 773b 7338 4c3c
000001b0: 8ad6 273c 76aa 523c 640f d03b 92bf 183c
000001c0: 72dc 973c 18f7 1a3b f844 a9bc ed9b 8b3c
000001d0: e486 f63c e7ba 3cbc 3c98 4c3b 381a e53b
000001e0: e25c bcbc b52c 73bc e62b 523b 3b84 843c
000001f0: ee4f 16bc 4d34 bc3c 67de a73b 2d27 b2bc
00000200: 564c b5bc e121 413c e997 dd3c 8476 03bc
00000210: 862b e4bc b85b 7dbc 9a3f 2cbc a626 b13b
00000220: 62d6 703c daa7 cbbc eb9a e0bc e343 29ba
00000230: 9de0 b43c 944c d23a b314 c0bc 2e9a cdbc
00000240: d36d 913c 0272 e33c 8696 cf3c fb2b c6bc
00000250: 2cba b238 479a f83c 14b9 e0bc 36d8 07bd
00000260: 8d43 77bc 45d5 113c ec2e 543c f5af d93c
00000270: b947 ab3c 550f 0a3c 2394 bd3b 4798 eabc
00000280: 4fa8 e03c 5c36 a23b 1345 d23c c348 c4bc
00000290: 7c79 98bc d4bf d1bc 2d5b 0dbb 1bda 493c
000002a0: 0110 9cbc 8de0 1c3c 6bd1 a13c 36c8 45bb
000002b0: 6800 97bc b3f9 80bc 49a1 203b f90f 1e3c
000002c0: 3147 4abc 697d 35bb 1875 c93c 2546 c03c
000002d0: 65b7 9f3b 0616 413c f6cf c5bc 565e 7f3c
000002e0: 3085 bd3c c468 383c ac39 2abc 9be7 e3bb
000002f0: e38d 953c 14d8 a83c d8b1 a13b 3acd c73b
00000300: cde4 dd3c 90fb 4abb 58ac 283c 9a3d a53a
00000310: 371d ecbc 110f ad3c 3cba 84bc bb29 833c
00000320: f055 ac3c 75dd 7d3c d38e 27bc c0bf 6abc
00000330: c0ab 773b 7f7d cabc 7b14 263b f6be 0e3c
00000340: 9c88 c2ba 22b7 89bc 5efa 45ba 2329 6fbb
00000350: bbb5 90bb 38d5 d03c f392 c23c 12af 48bc
00000360: 4325 073c 772f 26bc 39c0 24bc 0357 debc
00000370: 6a60 5cbc ac73 d2bc 242f e53c b3c3 723c
00000380: a42b 42bc 54ee d5bc ff72 81bb 0f0a 37bc
00000390: 749a 0cbd 8478 88bc 6efa dbbc 218b 87bc
000003a0: 0bbd 1eba 172c aabc 6409 dbbc 0cfc 5c3b
000003b0: 4a7a dabc 8640 05bd 74c2 8cbc f8ba 21bc
000003c0: 2f73 babc 4cd9 76bc a33c ca3c 10e7 b03b
000003d0: 1e6d b3bc f094 603c 207e 2b3c 5787 eebc
000003e0: b672 5d3c 75bd cf3b 1751 e93c 6ee9 d13b
000003f0: e11f c23c 3052 953a 650e 3ebc 3eaf 063c
0.015909936 0.02579833 -0.025231408 0.025995083 0.016788414 0.015690163 -0.029272454 -0.006775104
0.025254993 0.019444931 0.030768218 -0.0026386525 -0.01226413 -0.012188201 0.015292162 -0.009927705
-0.008223483 -0.013440383 -0.024512893 0.023606397 0.013053406 0.0128039 0.019990897 0.022823725
0.0016329471 0.023110755 -0.0038462656 0.023916638 -0.029898694 -0.023014873 -0.017817343 0.024981195
0.013187542 0.01743513 0.026904987 0.022396753 0.015444659 0.021787263 0.027557772 -0.018001197
0.009074047 0.0004152462 -0.0028169588 -0.028496213 0.023991443 -0.011313574 0.018566841 0.022683809
-0.00583805 0.018850705 0.0019524917 -0.012046795 -0.009818145 -0.04085612 -0.0020526778 0.023570547
-0.025563722 0.013203593 0.0144393165 -0.009835489 0.017672535 0.0071387626 -0.00951697 -0.0010777975
0.025250066 0.023858031 -0.014230613 0.017787378 -0.014667306 0.015447326 0.0021157842 -0.003780599
0.018445825 -0.027372977 0.008415816 0.012828818 -0.01485364 0.011976687 -0.0032911338 -0.01970811
0.011126931 -0.019634278 0.023599016 0.0074114534 0.0029289215 0.0065941038 0.03031951 0.021033557
-0.02206474 -0.0126553215 -0.021007549 0.017118176 -0.009351201 0.024946071 0.012743536 0.021128615
0.00933484 -0.024296183 0.022571446 -0.010033952 0.0058426745 -0.009165633 -0.0077140834 -0.03859894
-0.014526595 0.019898495 0.0037707994 0.01246463 0.010244021 0.012858024 0.006349491 0.009323018
0.018537734 0.0023645815 -0.02066277 0.017042125 0.030093618 -0.01151917 0.0031218668 0.006991651
-0.022993509 -0.014842202 0.0032069623 0.016176334 -0.00917433 0.022974158 0.005122948 -0.021747196
-0.022131126 0.0117878625 0.027049975 -0.008023862 -0.027852785 -0.015463762 -0.010513211 0.0054062186
0.01469955 -0.024860311 -0.02741762 -0.0006456954 0.02207976 0.001604455 -0.02344737 -0.025097933
0.017752564 0.027764324 0.02534033 -0.024190893 8.5223786e-05 0.030347003 -0.027432002 -0.03316518
-0.015091789 0.008900945 0.01295064 0.02657316 0.020908223 0.008426507 0.0057854815 -0.028637065
0.027424006 0.004950328 0.025667703 -0.023960477 -0.018612616 -0.025604166 -0.0021569238 0.012320067
-0.0190506 0.009575021 0.019753179 -0.003017915 -0.01843281 -0.015744066 0.0024510196 0.009647363
-0.012346075 -0.0027693158 0.024591967 0.023470948 0.0048741573 0.011785036 -0.024147015 0.015586456
0.023134798 0.011255447 -0.010389727 -0.0069550998 0.018256133 0.020610847 0.0049345307 0.006097463
0.02708664 -0.0030972697 0.010294996 0.001260686 -0.028822524 0.021125348 -0.016202085 0.01601111
0.021037072 0.015494694 -0.010226923 -0.014327943 0.003779158 -0.024718044 0.0025341797 0.008712521
-0.0014841738 -0.016810957 -0.0007552261 -0.0036493025 -0.004416195 0.025492296 0.023751711 -0.012248771
0.00824863 -0.010143152 -0.010055595 -0.0271411 -0.013450721 -0.025689922 0.02797658 0.014817166
-0.011851225 -0.02611462 -0.003950476 -0.011171832 -0.034326985 -0.016659029 -0.026852813 -0.016545834
-0.0006055391 -0.020772977 -0.026737876 0.0033719568 -0.02666964 -0.032532237 -0.017182566 -0.009871237
-0.022760002 -0.015066456 0.024687117 0.0053986385 -0.021902617 0.0137073845 0.010467082 -0.02911727
0.013516119 0.0063397237 0.02848105 0.006406001 0.023696842 0.0011392292 -0.011600112 0.008220492
